…
","metadata":{"colab":{"base_uri":"https://localhost:8080/"},"id":"ydAFTLWFB9GS","executionInfo":{"status":"ok","timestamp":1632469774823,"user_tz":-540,"elapsed":791,"user":{"displayName":"龍","photoUrl":"https://lh3.googleusercontent.com/a/default-user=s64","userId":"10936710371482780121"}},"outputId":"5a830fa4-fe88-426a-f5f6-4940405b0a5d"},"source":["# モデルの定義\n","net = PSPNet(n_classes=21)\n","net"],"execution_count":14,"outputs":[{"output_type":"execute_result","data":{"text/plain":["PSPNet(\n","  (feature_conv): FeatureMap_convolution(\n","    (cbnr_1): conv2DBatchNormRelu(\n","      (conv): Conv2d(3, 64, kernel_size=(3, 3), stride=(2, 2), padding=(1, 1), bias=False)\n","      (batchnorm): BatchNorm2d(64, eps=1e-05, momentum=0.1, affine=True, track_running_stats=True)\n","      (relu): ReLU(inplace=True)\n","    )\n","    (cbnr_2): conv2DBatchNormRelu(\n","      (conv): Conv2d(64, 64, kernel_size=(3, 3), stride=(1, 1), padding=(1, 1), bias=False)\n","      (batchnorm): BatchNorm2d(64, eps=1e-05, momentum=0.1, affine=True, track_running_stats=True)\n","      (relu): ReLU(inplace=True)\n","    )\n","    (cbnr_3): conv2DBatchNormRelu(\n","      (conv): Conv2d(64, 128, kernel_size=(3, 3), stride=(1, 1), padding=(1, 1), bias=False)\n","      (batchnorm): BatchNorm2d(128, eps=1e-05, momentum=0.1, affine=True, track_running_stats=True)\n","      (relu): ReLU(inplace=True)\n","    )\n","    (maxpool): MaxPool2d(kernel_size=3, stride=2, padding=1, dilation=1, ceil_mode=False)\n","  )\n","  (feature_res_1): ResidualBlockPSP(\n","    (block1): bottleNeckPSP(\n","      (cbr_1): conv2DBatchNormRelu(\n","        (conv): Conv2d(128, 64, kernel_size=(1, 1), stride=(1, 1), bias=False)\n","        (batchnorm): BatchNorm2d(64, eps=1e-05, momentum=0.1, affine=True, track_running_stats=True)\n","        (relu): ReLU(inplace=True)\n","      )\n","      (cbr_2): conv2DBatchNormRelu(\n","        (conv): Conv2d(64, 64, kernel_size=(3, 3), stride=(1, 1), padding=(1, 1), bias=False)\n","        (batchnorm): BatchNorm2d(64, eps=1e-05, momentum=0.1, affine=True, track_running_stats=True)\n","        (relu): ReLU(inplace=True)\n","      )\n","      (cb_3): conv2DBatchNorm(\n","        (conv): Conv2d(64, 256, kernel_size=(1, 1), stride=(1, 1), bias=False)\n","        (batchnorm): BatchNorm2d(256, eps=1e-05, momentum=0.1, affine=True, track_running_stats=True)\n","      )\n","      (cb_residual): conv2DBatchNorm(\n","        (conv): Conv2d(128, 256, kernel_size=(1, 1), stride=(1, 1), bias=False)\n","        (batchnorm): BatchNorm2d(256, eps=1e-05, momentum=0.1, affine=True, track_running_stats=True)\n","      )\n","      (relu): ReLU(inplace=True)\n","    )\n","    (block2): bottleNeckIdentifyPSP(\n","      (cbr_1): conv2DBatchNormRelu(\n","        (conv): Conv2d(256, 64, kernel_size=(1, 1), stride=(1, 1), bias=False)\n","        (batchnorm): BatchNorm2d(64, eps=1e-05, momentum=0.1, affine=True, track_running_stats=True)\n","        (relu): ReLU(inplace=True)\n","      )\n","      (cbr_2): conv2DBatchNormRelu(\n","        (conv): Conv2d(64, 64, kernel_size=(3, 3), stride=(1, 1), padding=(1, 1), bias=False)\n","        (batchnorm): BatchNorm2d(64, eps=1e-05, momentum=0.1, affine=True, track_running_stats=True)\n","        (relu): ReLU(inplace=True)\n","      )\n","      (cb_3): conv2DBatchNorm(\n","        (conv): Conv2d(64, 256, kernel_size=(1, 1), stride=(1, 1), bias=False)\n","        (batchnorm): BatchNorm2d(256, eps=1e-05, momentum=0.1, affine=True, track_running_stats=True)\n","      )\n","      (relu): ReLU(inplace=True)\n","    )\n","    (block3): bottleNeckIdentifyPSP(\n","      (cbr_1): conv2DBatchNormRelu(\n","        (conv): Conv2d(256, 64, kernel_size=(1, 1), stride=(1, 1), bias=False)\n","        (batchnorm): BatchNorm2d(64, eps=1e-05, momentum=0.1, affine=True, track_running_stats=True)\n","        (relu): ReLU(inplace=True)\n","      )\n","      (cbr_2): conv2DBatchNormRelu(\n","        (conv): Conv2d(64, 64, kernel_size=(3, 3), stride=(1, 1), padding=(1, 1), bias=False)\n","        (batchnorm): BatchNorm2d(64, eps=1e-05, momentum=0.1, affine=True, track_running_stats=True)\n","        (relu): ReLU(inplace=True)\n","      )\n","      (cb_3): conv2DBatchNorm(\n","        (conv): Conv2d(64, 256, kernel_size=(1, 1), stride=(1, 1), bias=False)\n","        (batchnorm): BatchNorm2d(256, eps=1e-05, momentum=0.1, affine=True, track_running_stats=True)\n","      )\n","      (relu): ReLU(inplace=True)\n","    )\n","  )\n","  (feature_res_2): ResidualBlockPSP(\n","    (block1): bottleNeckPSP(\n","      (cbr_1): conv2DBatchNormRelu(\n","        (conv): Conv2d(256, 128, kernel_size=(1, 1), stride=(1, 1), bias=False)\n","        (batchnorm): BatchNorm2d(128, eps=1e-05, momentum=0.1, affine=True, track_running_stats=True)\n","        (relu): ReLU(inplace=True)\n","      )\n","      (cbr_2): conv2DBatchNormRelu(\n","        (conv): Conv2d(128, 128, kernel_size=(3, 3), stride=(2, 2), padding=(1, 1), bias=False)\n","        (batchnorm): BatchNorm2d(128, eps=1e-05, momentum=0.1, affine=True, track_running_stats=True)\n","        (relu): ReLU(inplace=True)\n","      )\n","      (cb_3): conv2DBatchNorm(\n","        (conv): Conv2d(128, 512, kernel_size=(1, 1), stride=(1, 1), bias=False)\n","        (batchnorm): BatchNorm2d(512, eps=1e-05, momentum=0.1, affine=True, track_running_stats=True)\n","      )\n","      (cb_residual): conv2DBatchNorm(\n","        (conv): Conv2d(256, 512, kernel_size=(1, 1), stride=(2, 2), bias=False)\n","        (batchnorm): BatchNorm2d(512, eps=1e-05, momentum=0.1, affine=True, track_running_stats=True)\n","      )\n","      (relu): ReLU(inplace=True)\n","    )\n","    (block2): bottleNeckIdentifyPSP(\n","      (cbr_1): conv2DBatchNormRelu(\n","        (conv): Conv2d(512, 128, kernel_size=(1, 1), stride=(1, 1), bias=False)\n","        (batchnorm): BatchNorm2d(128, eps=1e-05, momentum=0.1, affine=True, track_running_stats=True)\n","        (relu): ReLU(inplace=True)\n","      )\n","      (cbr_2): conv2DBatchNormRelu(\n","        (conv): Conv2d(128, 128, kernel_size=(3, 3), stride=(1, 1), padding=(1, 1), bias=False)\n","        (batchnorm): BatchNorm2d(128, eps=1e-05, momentum=0.1, affine=True, track_running_stats=True)\n","        (relu): ReLU(inplace=True)\n","      )\n","      (cb_3): conv2DBatchNorm(\n","        (conv): Conv2d(128, 512, kernel_size=(1, 1), stride=(1, 1), bias=False)\n","        (batchnorm): BatchNorm2d(512, eps=1e-05, momentum=0.1, affine=True, track_running_stats=True)\n","      )\n","      (relu): ReLU(inplace=True)\n","    )\n","    (block3): bottleNeckIdentifyPSP(\n","      (cbr_1): conv2DBatchNormRelu(\n","        (conv): Conv2d(512, 128, kernel_size=(1, 1), stride=(1, 1), bias=False)\n","        (batchnorm): BatchNorm2d(128, eps=1e-05, momentum=0.1, affine=True, track_running_stats=True)\n","        (relu): ReLU(inplace=True)\n","      )\n","      (cbr_2): conv2DBatchNormRelu(\n","        (conv): Conv2d(128, 128, kernel_size=(3, 3), stride=(1, 1), padding=(1, 1), bias=False)\n","        (batchnorm): BatchNorm2d(128, eps=1e-05, momentum=0.1, affine=True, track_running_stats=True)\n","        (relu): ReLU(inplace=True)\n","      )\n","      (cb_3): conv2DBatchNorm(\n","        (conv): Conv2d(128, 512, kernel_size=(1, 1), stride=(1, 1), bias=False)\n","        (batchnorm): BatchNorm2d(512, eps=1e-05, momentum=0.1, affine=True, track_running_stats=True)\n","      )\n","      (relu): ReLU(inplace=True)\n","    )\n","    (block4): bottleNeckIdentifyPSP(\n","      (cbr_1): conv2DBatchNormRelu(\n","        (conv): Conv2d(512, 128, kernel_size=(1, 1), stride=(1, 1), bias=False)\n","        (batchnorm): BatchNorm2d(128, eps=1e-05, momentum=0.1, affine=True, track_running_stats=True)\n","        (relu): ReLU(inplace=True)\n","      )\n","      (cbr_2): conv2DBatchNormRelu(\n","        (conv): Conv2d(128, 128, kernel_size=(3, 3), stride=(1, 1), padding=(1, 1), bias=False)\n","        (batchnorm): BatchNorm2d(128, eps=1e-05, momentum=0.1, affine=True, track_running_stats=True)\n","        (relu): ReLU(inplace=True)\n","      )\n","      (cb_3): conv2DBatchNorm(\n","        (conv): Conv2d(128, 512, kernel_size=(1, 1), stride=(1, 1), bias=False)\n","        (batchnorm): BatchNorm2d(512, eps=1e-05, momentum=0.1, affine=True, track_running_stats=True)\n","      )\n","      (relu): ReLU(inplace=True)\n","    )\n","  )\n","  (feature_dilated_res_1): ResidualBlockPSP(\n","    (block1): bottleNeckPSP(\n","      (cbr_1): conv2DBatchNormRelu(\n","        (conv): Conv2d(512, 256, kernel_size=(1, 1), stride=(1, 1), bias=False)\n","        (batchnorm): BatchNorm2d(256, eps=1e-05, momentum=0.1, affine=True, track_running_stats=True)\n","        (relu): ReLU(inplace=True)\n","      )\n","      (cbr_2): conv2DBatchNormRelu(\n","        (conv): Conv2d(256, 256, kernel_size=(3, 3), stride=(1, 1), padding=(2, 2), dilation=(2, 2), bias=False)\n","        (batchnorm): BatchNorm2d(256, eps=1e-05, momentum=0.1, affine=True, track_running_stats=True)\n","        (relu): ReLU(inplace=True)\n","      )\n","      (cb_3): conv2DBatchNorm(\n","        (conv): Conv2d(256, 1024, kernel_size=(1, 1), stride=(1, 1), bias=False)\n","        (batchnorm): BatchNorm2d(1024, eps=1e-05, momentum=0.1, affine=True, track_running_stats=True)\n","      )\n","      (cb_residual): conv2DBatchNorm(\n","        (conv): Conv2d(512, 1024, kernel_size=(1, 1), stride=(1, 1), bias=False)\n","        (batchnorm): BatchNorm2d(1024, eps=1e-05, momentum=0.1, affine=True, track_running_stats=True)\n","      )\n","      (relu): ReLU(inplace=True)\n","    )\n","    (block2): bottleNeckIdentifyPSP(\n","      (cbr_1): conv2DBatchNormRelu(\n","        (conv): Conv2d(1024, 256, kernel_size=(1, 1), stride=(1, 1), bias=False)\n","        (batchnorm): BatchNorm2d(256, eps=1e-05, momentum=0.1, affine=True, track_running_stats=True)\n","        (relu): ReLU(inplace=True)\n","      )\n","      (cbr_2): conv2DBatchNormRelu(\n","        (conv): Conv2d(256, 256, kernel_size=(3, 3), stride=(1, 1), padding=(2, 2), dilation=(2, 2), bias=False)\n","        (batchnorm): BatchNorm2d(256, eps=1e-05, momentum=0.1, affine=True, track_running_stats=True)\n","        (relu): ReLU(inplace=True)\n","      )\n","      (cb_3): conv2DBatchNorm(\n","        (conv): Conv2d(256, 1024, kernel_size=(1, 1), stride=(1, 1), bias=False)\n","        (batchnorm): BatchNorm2d(1024, eps=1e-05, momentum=0.1, affine=True, track_running_stats=True)\n","      )\n","      (relu): ReLU(inplace=True)\n","    )\n","    (block3): bottleNeckIdentifyPSP(\n","      (cbr_1): conv2DBatchNormRelu(\n","        (conv): Conv2d(1024, 256, kernel_size=(1, 1), stride=(1, 1), bias=False)\n","        (batchnorm): BatchNorm2d(256, eps=1e-05, momentum=0.1, affine=True, track_running_stats=True)\n","        (relu): ReLU(inplace=True)\n","      )\n","      (cbr_2): conv2DBatchNormRelu(\n","        (conv): Conv2d(256, 256, kernel_size=(3, 3), stride=(1, 1), padding=(2, 2), dilation=(2, 2), bias=False)\n","        (batchnorm): BatchNorm2d(256, eps=1e-05, momentum=0.1, affine=True, track_running_stats=True)\n","        (relu): ReLU(inplace=True)\n","      )\n","      (cb_3): conv2DBatchNorm(\n","        (conv): Conv2d(256, 1024, kernel_size=(1, 1), stride=(1, 1), bias=False)\n","        (batchnorm): BatchNorm2d(1024, eps=1e-05, momentum=0.1, affine=True, track_running_stats=True)\n","      )\n","      (relu): ReLU(inplace=True)\n","    )\n","    (block4): bottleNeckIdentifyPSP(\n","      (cbr_1): conv2DBatchNormRelu(\n","        (conv): Conv2d(1024, 256, kernel_size=(1, 1), stride=(1, 1), bias=False)\n","        (batchnorm): BatchNorm2d(256, eps=1e-05, momentum=0.1, affine=True, track_running_stats=True)\n","        (relu): ReLU(inplace=True)\n","      )\n","      (cbr_2): conv2DBatchNormRelu(\n","        (conv): Conv2d(256, 256, kernel_size=(3, 3), stride=(1, 1), padding=(2, 2), dilation=(2, 2), bias=False)\n","        (batchnorm): BatchNorm2d(256, eps=1e-05, momentum=0.1, affine=True, track_running_stats=True)\n","        (relu): ReLU(inplace=True)\n","      )\n","      (cb_3): conv2DBatchNorm(\n","        (conv): Conv2d(256, 1024, kernel_size=(1, 1), stride=(1, 1), bias=False)\n","        (batchnorm): BatchNorm2d(1024, eps=1e-05, momentum=0.1, affine=True, track_running_stats=True)\n","      )\n","      (relu): ReLU(inplace=True)\n","    )\n","    (block5): bottleNeckIdentifyPSP(\n","      (cbr_1): conv2DBatchNormRelu(\n","        (conv): Conv2d(1024, 256, kernel_size=(1, 1), stride=(1, 1), bias=False)\n","        (batchnorm): BatchNorm2d(256, eps=1e-05, momentum=0.1, affine=True, track_running_stats=True)\n","        (relu): ReLU(inplace=True)\n","      )\n","      (cbr_2): conv2DBatchNormRelu(\n","        (conv): Conv2d(256, 256, kernel_size=(3, 3), stride=(1, 1), padding=(2, 2), dilation=(2, 2), bias=False)\n","        (batchnorm): BatchNorm2d(256, eps=1e-05, momentum=0.1, affine=True, track_running_stats=True)\n","        (relu): ReLU(inplace=True)\n","      )\n","      (cb_3): conv2DBatchNorm(\n","        (conv): Conv2d(256, 1024, kernel_size=(1, 1), stride=(1, 1), bias=False)\n","        (batchnorm): BatchNorm2d(1024, eps=1e-05, momentum=0.1, affine=True, track_running_stats=True)\n","      )\n","      (relu): ReLU(inplace=True)\n","    )\n","    (block6): bottleNeckIdentifyPSP(\n","      (cbr_1): conv2DBatchNormRelu(\n","        (conv): Conv2d(1024, 256, kernel_size=(1, 1), stride=(1, 1), bias=False)\n","        (batchnorm): BatchNorm2d(256, eps=1e-05, momentum=0.1, affine=True, track_running_stats=True)\n","        (relu): ReLU(inplace=True)\n","      )\n","      (cbr_2): conv2DBatchNormRelu(\n","        (conv): Conv2d(256, 256, kernel_size=(3, 3), stride=(1, 1), padding=(2, 2), dilation=(2, 2), bias=False)\n","        (batchnorm): BatchNorm2d(256, eps=1e-05, momentum=0.1, affine=True, track_running_stats=True)\n","        (relu): ReLU(inplace=True)\n","      )\n","      (cb_3): conv2DBatchNorm(\n","        (conv): Conv2d(256, 1024, kernel_size=(1, 1), stride=(1, 1), bias=False)\n","        (batchnorm): BatchNorm2d(1024, eps=1e-05, momentum=0.1, affine=True, track_running_stats=True)\n","      )\n","      (relu): ReLU(inplace=True)\n","    )\n","  )\n","  (feature_dilated_res_2): ResidualBlockPSP(\n","    (block1): bottleNeckPSP(\n","      (cbr_1): conv2DBatchNormRelu(\n","        (conv): Conv2d(1024, 512, kernel_size=(1, 1), stride=(1, 1), bias=False)\n","        (batchnorm): BatchNorm2d(512, eps=1e-05, momentum=0.1, affine=True, track_running_stats=True)\n","        (relu): ReLU(inplace=True)\n","      )\n","      (cbr_2): conv2DBatchNormRelu(\n","        (conv): Conv2d(512, 512, kernel_size=(3, 3), stride=(1, 1), padding=(4, 4), dilation=(4, 4), bias=False)\n","        (batchnorm): BatchNorm2d(512, eps=1e-05, momentum=0.1, affine=True, track_running_stats=True)\n","        (relu): ReLU(inplace=True)\n","      )\n","      (cb_3): conv2DBatchNorm(\n","        (conv): Conv2d(512, 2048, kernel_size=(1, 1), stride=(1, 1), bias=False)\n","        (batchnorm): BatchNorm2d(2048, eps=1e-05, momentum=0.1, affine=True, track_running_stats=True)\n","      )\n","      (cb_residual): conv2DBatchNorm(\n","        (conv): Conv2d(1024, 2048, kernel_size=(1, 1), stride=(1, 1), bias=False)\n","        (batchnorm): BatchNorm2d(2048, eps=1e-05, momentum=0.1, affine=True, track_running_stats=True)\n","      )\n","      (relu): ReLU(inplace=True)\n","    )\n","    (block2): bottleNeckIdentifyPSP(\n","      (cbr_1): conv2DBatchNormRelu(\n","        (conv): Conv2d(2048, 512, kernel_size=(1, 1), stride=(1, 1), bias=False)\n","        (batchnorm): BatchNorm2d(512, eps=1e-05, momentum=0.1, affine=True, track_running_stats=True)\n","        (relu): ReLU(inplace=True)\n","      )\n","      (cbr_2): conv2DBatchNormRelu(\n","        (conv): Conv2d(512, 512, kernel_size=(3, 3), stride=(1, 1), padding=(4, 4), dilation=(4, 4), bias=False)\n","        (batchnorm): BatchNorm2d(512, eps=1e-05, momentum=0.1, affine=True, track_running_stats=True)\n","        (relu): ReLU(inplace=True)\n","      )\n","      (cb_3): conv2DBatchNorm(\n","        (conv): Conv2d(512, 2048, kernel_size=(1, 1), stride=(1, 1), bias=False)\n","        (batchnorm): BatchNorm2d(2048, eps=1e-05, momentum=0.1, affine=True, track_running_stats=True)\n","      )\n","      (relu): ReLU(inplace=True)\n","    )\n","    (block3): bottleNeckIdentifyPSP(\n","      (cbr_1): conv2DBatchNormRelu(\n","        (conv): Conv2d(2048, 512, kernel_size=(1, 1), stride=(1, 1), bias=False)\n","        (batchnorm): BatchNorm2d(512, eps=1e-05, momentum=0.1, affine=True, track_running_stats=True)\n","        (relu): ReLU(inplace=True)\n","      )\n","      (cbr_2): conv2DBatchNormRelu(\n","        (conv): Conv2d(512, 512, kernel_size=(3, 3), stride=(1, 1), padding=(4, 4), dilation=(4, 4), bias=False)\n","        (batchnorm): BatchNorm2d(512, eps=1e-05, momentum=0.1, affine=True, track_running_stats=True)\n","        (relu): ReLU(inplace=True)\n","      )\n","      (cb_3): conv2DBatchNorm(\n","        (conv): Conv2d(512, 2048, kernel_size=(1, 1), stride=(1, 1), bias=False)\n","        (batchnorm): BatchNorm2d(2048, eps=1e-05, momentum=0.1, affine=True, track_running_stats=True)\n","      )\n","      (relu): ReLU(inplace=True)\n","    )\n","  )\n","  (pyramid_pooling): PyramidPooling(\n","    (avpool_1): AdaptiveAvgPool2d(output_size=6)\n","    (cbr_1): conv2DBatchNormRelu(\n","      (conv): Conv2d(2048, 512, kernel_size=(1, 1), stride=(1, 1), bias=False)\n","      (batchnorm): BatchNorm2d(512, eps=1e-05, momentum=0.1, affine=True, track_running_stats=True)\n","      (relu): ReLU(inplace=True)\n","    )\n","    (avpool_2): AdaptiveAvgPool2d(output_size=3)\n","    (cbr_2): conv2DBatchNormRelu(\n","      (conv): Conv2d(2048, 512, kernel_size=(1, 1), stride=(1, 1), bias=False)\n","      (batchnorm): BatchNorm2d(512, eps=1e-05, momentum=0.1, affine=True, track_running_stats=True)\n","      (relu): ReLU(inplace=True)\n","    )\n","    (avpool_3): AdaptiveAvgPool2d(output_size=2)\n","    (cbr_3): conv2DBatchNormRelu(\n","      (conv): Conv2d(2048, 512, kernel_size=(1, 1), stride=(1, 1), bias=False)\n","      (batchnorm): BatchNorm2d(512, eps=1e-05, momentum=0.1, affine=True, track_running_stats=True)\n","      (relu): ReLU(inplace=True)\n","    )\n","    (avpool_4): AdaptiveAvgPool2d(output_size=1)\n","    (cbr_4): conv2DBatchNormRelu(\n","      (conv): Conv2d(2048, 512, kernel_size=(1, 1), stride=(1, 1), bias=False)\n","      (batchnorm): BatchNorm2d(512, eps=1e-05, momentum=0.1, affine=True, track_running_stats=True)\n","      (relu): ReLU(inplace=True)\n","    )\n","  )\n","  (decode_feature): DecodePSPFeature(\n","    (cbr): conv2DBatchNormRelu(\n","      (conv): Conv2d(4096, 512, kernel_size=(3, 3), stride=(1, 1), padding=(1, 1), bias=False)\n","      (batchnorm): BatchNorm2d(512, eps=1e-05, momentum=0.1, affine=True, track_running_stats=True)\n","      (relu): ReLU(inplace=True)\n","    )\n","    (dropout): Dropout2d(p=0.1, inplace=False)\n","    (classification): Conv2d(512, 21, kernel_size=(1, 1), stride=(1, 1))\n","  )\n","  (aux): AuxiliaryPSPlayers(\n","    (cbr): conv2DBatchNormRelu(\n","      (conv): Conv2d(1024, 256, kernel_size=(3, 3), stride=(1, 1), padding=(1, 1), bias=False)\n","      (batchnorm): BatchNorm2d(256, eps=1e-05, momentum=0.1, affine=True, track_running_stats=True)\n","      (relu): ReLU(inplace=True)\n","    )\n","    (dropout): Dropout2d(p=0.1, inplace=False)\n","    (classification): Conv2d(256, 21, kernel_size=(1, 1), stride=(1, 1))\n","  )\n",")"]},"metadata":{},"execution_count":14}]},{"cell_type":"code","metadata":{"colab":{"base_uri":"https://localhost:8080/"},"id":"taEq9mZfB9GT","executionInfo":{"status":"ok","timestamp":1632469790972,"user_tz":-540,"elapsed":13918,"user":{"displayName":"龍","photoUrl":"https://lh3.googleusercontent.com/a/default-user=s64","userId":"109367103714
…
